…
  _warn(("h5py is running against HDF5 {0} when it was built against {1}, "
[[1. 0. 0. 0. 0. 0. 0. 0. 0. 0.]
 [1. 0. 0. 0. 0. 0. 0. 0. 0. 0.]
 [1. 0. 0. 0. 0. 0. 0. 0. 0. 0.]
 [1. 0. 0. 0. 0. 0. 0. 0. 0. 0.]
 [1. 0. 0. 0. 0. 0. 0. 0. 0. 0.]
 [1. 0. 0. 0. 0. 0. 0. 0. 0. 0.]
 [1. 0. 0. 0. 0. 0. 0. 0. 0. 0.]
 [1. 0. 0. 0. 0. 0. 0. 0. 0. 0.]
 [1. 0. 0. 0. 0. 0. 0. 0. 0. 0.]
 [1. 0. 0. 0. 0. 0. 0. 0. 0. 0.]]
Model: "sequential"
_________________________________________________________________
 Layer (type)                Output Shape              Param #   
=================================================================
 resnet50 (Functional)       (None, 4, 4, 2048)        23587712  
                                                                 
 flatten (Flatten)           (None, 32768)             0         
                                                                 
 batch_normalization (Batch  (None, 32768)             131072    
 Normalization)                                                  
                                                                 
 dense (Dense)               (None, 32)                1048608   
                                                                 
 dropout (Dropout)           (None, 32)                0         
                                                                 
 batch_normalization_1 (Bat  (None, 32)                128       
 chNormalization)                                                
                                                                 
 dense_1 (Dense)             (None, 10)                330       
                                                                 
=================================================================
Total params: 24767850 (94.48 MB)
Trainable params: 1114538 (4.25 MB)
Non-trainable params: 23653312 (90.23 MB)
_________________________________________________________________
Epoch 1/2
381/381 [==============================] - 620s 2s/step - loss: 1.0213 - accuracy: 0.7269 - val_loss: 0.0318 - val_accuracy: 1.0000
…
To enable the following instructions: SSE4.1 SSE4.2 AVX AVX2 FMA, in other operations, rebuild TensorFlow with the appropriate compiler flags.
/Users/lucajuliusbarbera/opt/miniconda3/envs/urban/lib/python3.11/site-packages/h5py/__init__.py:36: UserWarning: h5py is running against HDF5 1.14.3 when it was built against 1.14.2, this may cause problems
  _warn(("h5py is running against HDF5 {0} when it was built against {1}, "
Arrays have been loaded...
Train test split successful...
Model: "sequential"
_________________________________________________________________
 Layer (type)                Output Shape              Param #   
=================================================================
 conv2d (Conv2D)             (None, 118, 118, 32)      896       
                                                                 
 batch_normalization (Batch  (None, 118, 118, 32)      128       
 Normalization)                                                  
                                                                 
 activation (Activation)     (None, 118, 118, 32)      0         
                                                                 
 max_pooling2d (MaxPooling2  (None, 59, 59, 32)        0         
 D)                                                              
                                                                 
 conv2d_1 (Conv2D)           (None, 57, 57, 64)        18496     
                                                                 
 batch_normalization_1 (Bat  (None, 57, 57, 64)        256       
 chNormalization)                                                
                                                                 
 activation_1 (Activation)   (None, 57, 57, 64)        0         
                                                                 
 dropout (Dropout)           (None, 57, 57, 64)        0         
                                                                 
 max_pooling2d_1 (MaxPoolin  (None, 28, 28, 64)        0         
 g2D)                                                            
                                                                 
 flatten (Flatten)           (None, 50176)             0         
                                                                 
 dense (Dense)               (None, 32)                1605664   
                                                                 
 batch_normalization_2 (Bat  (None, 32)                128       
 chNormalization)                                                
                                                                 
 activation_2 (Activation)   (None, 32)                0         
                                                                 
 dropout_1 (Dropout)         (None, 32)                0         
                                                                 
 dense_1 (Dense)             (None, 10)                330       
                                                                 
=================================================================
Total params: 1625898 (6.20 MB)
Trainable params: 1625642 (6.20 MB)
Non-trainable params: 256 (1.00 KB)
_________________________________________________________________
Epoch 1/2
381/381 [==============================] - 303s 787ms/step - loss: 0.5743 - accuracy: 0.8769 - val_loss: 0.0322 - val_accuracy: 1.0000
…
